…
      "Shape of output to Conv2d(3, 6, kernel_size=(5, 5), stride=(1, 1)) is torch.Size([1024, 6, 28, 28]).\nShape of output to MaxPool2d(kernel_size=2, stride=2, padding=0, dilation=1, ceil_mode=False) is torch.Size([1024, 6, 14, 14]).\nShape of output to Conv2d(6, 16, kernel_size=(5, 5), stride=(1, 1)) is torch.Size([1024, 16, 10, 10]).\nShape of output to MaxPool2d(kernel_size=2, stride=2, padding=0, dilation=1, ceil_mode=False) is torch.Size([1024, 16, 5, 5]).\nShape of output to Linear(in_features=400, out_features=120, bias=True) is torch.Size([1024, 120]).\nShape of output to Linear(in_features=120, out_features=84, bias=True) is torch.Size([1024, 84]).\nShape of output to Linear(in_features=84, out_features=10, bias=True) is torch.Size([1024, 10]).\nShape of output to Net(\n  (conv1): Conv2d(3, 6, kernel_size=(5, 5), stride=(1, 1))\n  (pool): MaxPool2d(kernel_size=2, stride=2, padding=0, dilation=1, ceil_mode=False)\n  (conv2): Conv2d(6, 16, kernel_size=(5, 5), stride=(1, 1))\n  (fc1): Linear(in_features=400, out_features=120, bias=True)\n  (fc2): Linear(in_features=120, out_features=84, bias=True)\n  (fc3): Linear(in_features=84, out_features=10, bias=True)\n) is torch.Size([1024, 10])."
    ]
  },
  {
    "url": "https://pytorch.org/tutorials/recipes/compiling_optimizer_lr_scheduler.html",
    "title": "(beta) Running the compiled optimizer with an LR Scheduler\u00b6",
    "code_snippets": [
      "import torch\n\n# Create simple model\nmodel = torch.nn.Sequential(\n    *[torch.nn.Linear(1024, 1024, False, device=\"cuda\") for _ in range(10)]\n)\ninput = torch.rand(1024, device=\"cuda\")\n\n# run forward pass\noutput = model(input)\n\n# run backward to populate the grads for our optimizer below\noutput.sum().backward()",
…
00, 428MB/s]\n 57%|#####7    | 303M/528M [00:00<00:00, 439MB/s]\n 66%|######5   | 347M/528M [00:00<00:00, 447MB/s]\n 74%|#######4  | 392M/528M [00:00<00:00, 453MB/s]\n 83%|########2 | 436M/528M [00:01<00:00, 457MB/s]\n 91%|#########1| 481M/528M [00:01<00:00, 460MB/s]\n 99%|#########9| 525M/528M [00:01<00:00, 461MB/s]\n100%|##########| 528M/528M [00:01<00:00, 451MB/s]",
      "model = models.vgg16() # we do not specify ``weights``, i.e. create untrained model\nmodel.load_state_dict(torch.load('model_weights.pth', weights_only=True))\nmodel.eval()",
      "VGG(\n  (features): Sequential(\n    (0): Conv2d(3, 64, kernel_size=(3, 3), stride=(1, 1), padding=(1, 1))\n    (1): ReLU(inplace=True)\n    (2): Conv2d(64, 64, kernel_size=(3, 3), stride=(1, 1), padding=(1, 1))\n    (3): ReLU(inplace=True)\n    (4): MaxPool2d(kernel_size=2, stride=2, padding=0, dilation=1, ceil_mode=False)\n    (5): Conv2d(64, 128, kernel_size=(3, 3), stride=(1, 1), padding=(1, 1))\n    (6): ReLU(inplace=True)\n    (7): Conv2d(128, 128, kernel_size=(3, 3), stride=(1, 1), padding=(1, 1))\n    (8): ReLU(inplace=True)\n    (9): MaxPool2d(kernel_size=2, stride=2, padding=0, dilation=1, ceil_mode=False)\n    (10): Conv2d(128, 256, kernel_size=(3, 3), stride=(1, 1), padding=(1, 1))\n    (11): ReLU(inplace=True)\n    (12): Conv2d(256, 256, kernel_size=(3, 3), stride=(1, 1), padding=(1, 1))\n    (13): ReLU(inplace=True)\n    (14): Conv2d(256, 256, kernel_size=(3, 3), stride=(1, 1), padding=(1, 1))\n    (15): ReLU(inplace=True)\n    (16): MaxPool2d(kernel_size=2, stride=2, padding=0, dilation=1, ceil_mode=False)\n    (17): Conv2d(256, 512, kernel_size=(3, 3), stride=(1, 1), padding=(1, 1))\n    (18): ReLU(inplace=True)\n    (19): Conv2d(512, 512, kernel_size=(3, 3), stride=(1, 1), padding=(1, 1))\n    (20): ReLU(inplace=True)\n    (21): Conv2d(512, 512, kernel_size=(3, 3), stride=(1, 1), padding=(1, 1))\n    (22): ReLU(inplace=True)\n    (23): MaxPool2d(kernel_size=2, stride=2, padding=0, dilation=1, ceil_mode=False)\n    (24): Conv2d(512, 512, kernel_size=(3, 3), stride=(1, 1), padding=(1, 1))\n    (25): ReLU(inplace=True)\n    (26): Conv2d(512, 512, kernel_size=(3, 3), stride=(1, 1), padding=(1, 1))\n    (27): ReLU(inplace=True)\n    (28): Conv2d(512, 512, kernel_size=(3, 3), stride=(1, 1), padding=(1, 1))\n    (29): ReLU(inplace=True)\n    (30): MaxPool2d(kernel_size=2, stride=2, padding=0, dilation=1, ceil_mode=False)\n  )\n  (avgpool): AdaptiveAvgPool2d(output_size=(7, 7))\n  (classifier): Sequential(\n    (0): Linear(in_features=25088, out_features=4096, bias=True)\n    (1): ReLU(inplace=True)\n    (2): Dropout(p=0.5, inplace=False)\n    (3): Linear(in_features=4096, out_features=4096, bias=True)\n    (4): ReLU(inplace=True)\n    (5): Dropout(p=0.5, inplace=False)\n    (6): Linear(in_features=4096, out_features=1000, bias=True)\n  )\n)",
      "torch.save(model, 'model.pth')",
      "model = torch.load('model.pth', weights_only=False),"
    ]
  },
  {
    "url": "https://pytorch.org/tutorials/recipes/distributed_checkpoint_recipe.html",
    "title": "Getting Started with Distributed Checkpoint (DCP)\u00b6",
    "code_snippets": [
      "import os\n\nimport torch\nimport tor
…
_features(self, x):\n        size = x.size()[1:]  # all dimensions except the batch dimension\n        num_features = 1\n        for s in size:\n            num_features *= s\n        return num_features",
      "net = LeNet()\nprint(net)                         # what does the object tell us about itself?\n\ninput = torch.rand(1, 1, 32, 32)   # stand-in for a 32x32 black & white image\nprint('\\nImage batch shape:')\nprint(input.shape)\n\noutput = net(input)                # we don't call forward() directly\nprint('\\nRaw output:')\nprint(output)\nprint(output.shape)",
      "LeNet(\n  (conv1): Conv2d(1, 6, kernel_size=(5, 5), stride=(1, 1))\n  (conv2): Conv2d(6, 16, kernel_size=(5, 5), stride=(1, 1))\n  (fc1): Linear(in_features=400, out_features=120, bias=True)\n  (fc2): Linear(in_features=120, out_features=84, bias=True)\n  (fc3): Linear(in_features=84, out_features=10, bias=True)\n)\n\nImage batch shape:\ntorch.Size([1, 1, 32, 32])\n\nRaw output:\ntensor([[ 0.0898,  0.0318,  0.1485,  0.0301, -0.0085, -0.1135, -0.0296,  0.0164,\n          0.0039,  0.0616]], grad_fn=<AddmmBackward0>)\ntorch.Size([1, 10])",
      "#%matplotlib inline\n\nimport torch\nimport torchvision\nimport torchvision.transforms as transforms\n\ntransform = transforms.Compose(\n    [transforms.ToTensor(),\n     transforms.Normalize((0.4914, 0.4822, 0.4465), (0.2470, 0.2435, 0.2616))])",
…
